…
model2.fit([X_train2,X_train2], Y_train, 
           batch_size = 30, nb_epoch = 1000, verbose = 1)

res2 = model2.predict_classes([X_train2,X_train2])
acc2=((res2-iris.target)==0).sum()/len(res2)
acc2

150/150 [==============================] - 0s     
Out[449]: 0.98666666666666669

____________________________________________________________________________________________________
Layer (type)                     Output Shape          Param #     Connected to                     
====================================================================================================
dense_536 (Dense)                (None, 5)             25                                           
____________________________________________________________________________________________________
activation_568 (Activation)      (None, 5)             0                                            
____________________________________________________________________________________________________
dense_537 (Dense)                (None, 5)             30                                           
____________________________________________________________________________________________________
activation_569 (Activation)      (None, 5)             0                                            
____________________________________________________________________________________________________
dense_538 (Dense)                (None, 3)             18                                           
____________________________________________________________________________________________________
activation_570 (Activation)      (None, 3)             0                                            
____________________________________________________________________________________________________
dense_539 (Dense)                (None, 4)             16                                           
____________________________________________________________________________________________________
lambda_150 (Lambda)              (None, 4)             0                                            
____________________________________________________________________________________________________
activation_573 (Activation)      (None, 8)             0           merge_104[0][0]                  
____________________________________________________________________________________________________
reshape_38 (Reshape)             (None, 8)             0           activation_573[0][0]             
____________________________________________________________________________________________________
dense_540 (Dense)                (None, 3)             27          reshape_38[0][0]                 
____________________________________________________________________________________________________
activation_574 (Activation)      (None, 3)             0           dense_540[0][0]                  
====================================================================================================
Total params: 116
____________________________________________________________________________________________________
